models/EduKG/TransE/10.pt (torch, 87719 bytes, 2 tensors)

ent_embs.weight f4 [4309, 5]
5.0037518 -2.0813408 -3.755254 -2.1483603 -3.9067452 3.9629104 3.6315827 -4.2562385
-2.7982614 3.3199618 0.07641575 2.0668619 1.5602118 -1.1330338 -1.7723824 3.4951057
-4.447233 -0.8324181 -4.77344 -1.1930608 -4.170991 5.550689 -2.6538227 -3.2319932
-0.7451168 -0.39637244 2.9749186 1.5807569 -2.1917295 0.90432864 3.2510512 -2.1789832
3.2837472 -1.5838546 -4.1808677 4.5353384 2.9901876 4.3118362 2.0296142 1.9989812
-2.089936 -4.1001844 3.182729 -4.6954303 3.357382 -3.8589303 -1.1482633 2.5787413
-0.78116465 -1.3579373 0.7649535 -3.4056866 1.2936997 -0.8786598 -3.0952039 -0.2934853
0.34997317 3.225473 -4.0476913 -0.6032261 -3.5942178 -1.2915277 4.05791 -2.1952922
0.97586215 2.7281964 -0.98383695 3.1444907 4.6797175 -2.2559936 0.26201147 2.9454749
3.6327114 -1.2024606 -0.7651286 2.5577505 4.005612 3.3115265 -1.5660664 -2.4233103
0.0693702 -2.5399206 3.882951 0.15822758 -1.536462 -0.5766115 2.6347134 -0.73162025
-1.902893 -3.4998417 -5.4746027 4.2528806 4.2262645 -1.9992297 3.233092 -3.8216896
4.0110955 -3.715544 -1.2256134 2.6159809 2.861196 -1.560548 -3.4753313 -4.73672
-4.845169 -0.8585973 1.3511442 3.496502 -3.8398376 0.3941355 3.0037467 1.483095
1.0150394 1.6307862 3.3797526 -4.505731 4.883958 1.7006931 -2.3366988 -3.909701
4.144476 -4.3869057 2.8550913 -1.1448491 5.251612 -5.3640914 1.2626759 1.2438095
-3.6646922 2.7544532 -1.0600387 -3.76858 -0.38905236 -0.4941618 2.7559583 -2.2488558
4.590051 -0.5751605 0.8995461 0.953766 0.26451966 2.5545917 1.708506 -3.663796
1.4884753 -5.0432696 4.313348 0.3624673 4.8618484 2.9265778 1.7216495 -0.59035236
1.5063449 -4.04348 -3.4279108 -2.5412867 -3.7277708 -1.9387393 -4.0851374 -3.9455945
-0.20803888 5.252035 4.479114 4.464996 2.4244852 -0.08147513 1.5562121 -2.0826266
1.3215681 -4.4179187 -2.7303097 4.6577215 4.565824 1.5289998 -4.194335 2.4204752
1.9377393 3.2744272 -1.7281606 0.6220255 1.3705013 -0.88116515 2.6455123 -2.1224687
0.26637676 0.26254204 -0.065597326 0.48257747 -0.33556718 3.3485463 -4.2745757 3.4086866
-0.09195285 -4.4550133 -4.246243 0.8411664 -0.6454064 1.3833516 2.0360303 2.409788
-4.380318 -3.5093477 -4.548837 -4.05946 -3.775613 4.0878553 -2.056398 4.2442594
4.290018 -2.8377812 -3.1085634 -2.214157 0.9567388 5.383767 5.097392 0.19688557
2.6386962 2.3011105 -2.9615715 -0.5342766 4.2302637 -3.649974 1.531431 4.634754
-1.6405929 3.2205436 0.65491194 0.90351653 -1.2373949 0.44142315 -0.36134127 1.9941596
3.9654567 -1.9116302 -0.18444088 4.393281 -4.8789306 0.7186487 4.025928 0.14517875
1.2499098 2.3661976 3.0615554 -2.3547268 -1.173892 1.3377423 -1.380114 3.0170236
-2.6416457 -0.9745352 -4.051656 -4.1893477 -4.0315113 -5.038871 -2.7577715 -2.196983
00000000: bc1e a040 b034 05c0 1556 70c0 bc7e 09c0
00000010: 1d08 7ac0 53a0 7d40 da6b 6840 1b33 88c0
00000020: b716 33c0 417a 5440 dc7f 9c3d 7747 0440
00000030: 05b5 c73f 4007 91bf 6ddd e2bf d0af 5f40
00000040: bc4f 8ec0 5a19 55bf 05c0 98c0 37b6 98bf
00000050: c278 85c0 3f9f b140 3bd8 29c0 fad8 4ec0
00000060: f9bf 3ebf 54f1 cabe 1165 3e40 3e56 ca3f
00000070: 4c45 0cc0 1582 673f 3911 5040 7674 0bc0
00000080: ea28 5240 bfbb cabf abc9 85c0 7e21 9140
00000090: 3c5f 3f40 90fa 8940 33e5 0140 9ede ff3f
000000a0: 83c1 05c0 b634 83c0 d5b1 4b40 f740 96c0
000000b0: 59df 5640 b7f8 76c0 4bfa 92bf 190a 2540
000000c0: 68fa 47bf e4d0 adbf fed3 433f c5f6 59c0
000000d0: f497 a53f d9ef 60bf d217 46c0 b543 96be
000000e0: af2f b33e 266e 4e40 b086 81c0 076d 1abf
000000f0: aa07 66c0 c850 a5bf 66da 8140 ab7f 0cc0
00000100: 1ad2 793f c59a 2e40 bddc 7bbf 563f 4940
00000110: 3fc0 9540 3362 10c0 5e26 863e a982 3c40
00000120: 587e 6840 3bea 99bf 78df 43bf 2fb2 2340
00000130: f92d 8040 0df0 5340 dd74 c8bf 8417 1bc0
00000140: f711 8e3d 0f8e 22c0 4582 7840 6906 223e
00000150: c9aa c4bf d09c 13bf 259f 2840 774b 3bbf
00000160: ff91 f3bf 68fd 5fc0 f22f afc0 9917 8840
00000170: 8f3d 8740 c2e6 ffbf fbea 4e40 9096 74c0
00000180: e55a 8040 79cb 6dc0 e6e0 9cbf 3b6c 2740
00000190: d61d 3740 09c0 c7bf d46b 5ec0 3693 97c0
000001a0: a00b 9bc0 08cd 5bbf 4bf2 ac3f b0c6 5f40
000001b0: e6bf 75c0 21cc c93e 633d 4040 0fd6 bd3f
000001c0: d0ec 813f 9abd d03f de4d 5840 f32e 90c0
000001d0: 6249 9c40 50b0 d93f 798c 15c0 8b38 7ac0
000001e0: 8c9f 8440 8861 8cc0 d1b9 3640 6a8a 92bf
000001f0: 350d a840 a3a6 abc0 5d9f a13f 2635 9f3f
00000200: 518a 6ac0 f648 3040 59af 87bf 6a30 71c0
00000210: df31 c7be c702 fdbe 9f61 3040 41ed 0fc0
00000220: b3e1 9240 b83d 13bf a748 663f 022a 743f
00000230: 1f6f 873e 6e7e 2340 53b0 da3f a27b 6ac0
00000240: 5c86 be3f 7762 a1c0 f206 8a40 5095 b93e
00000250: 4394 9b40 0d4d 3b40 035f dc3f 5521 17bf
00000260: e9cf c03f 3064 81c0 e462 5bc0 71a4 22c0
00000270: cc93 6ec0 9c28 f8bf 72b9 82c0 9f84 7cc0
00000280: 2508 55be ac10 a840 e754 8f40 3fe1 8e40
00000290: c42a 1b40 6fdc a6bd f531 c73f c149 05c0
000002a0: 2529 a93f 975f 8dc0 65bd 2ec0 0e0c 9540
000002b0: 3b1b 9240 44b6 c33f fe37 86c0 11e9 1a40
000002c0: d707 f83f 3790 5140 5e34 ddbf 103d 1f3f
000002d0: 966c af3f 0a94 61bf 1350 2940 87d6 07c0
000002e0: 8962 883e e96b 863e e457 86bd 6514 f73e
000002f0: 76cf abbe 954e 5640 53c9 88c0 ec27 5a40
00000300: c751 bcbd 788f 8ec0 39e1 87c0 ae56 573f
00000310: 5b39 25bf aa11 b13f 524e 0240 f739 1a40
00000320: 912b 8cc0 2799 60c0 1390 91c0 19e7 81c0
00000330: a5a3 71c0 b6cf 8240 069c 03c0 f9d0 8740
00000340: d447 8940 359e 35c0 b4f2 46c0 c0b4 0dc0
00000350: d6ec 743f d247 ac40 d61d a340 5f9c 493e
00000360: 66e0 2840 6545 1340 638a 3dc0 5ac6 08bf
00000370: 525e 8740 2d99 69c0 ee05 c43f e84f 9440
00000380: f3fe d1bf 631d 4e40 4fa8 273f dc4c 673f
00000390: f562 9ebf 3702 e23e b901 b9be 9f40 ff3f
000003a0: 0bca 7d40 4cb0 f4bf 12de 3cbe c295 8c40
000003b0: 3320 9cc0 5cf9 373f 67d4 8040 bda9 143e
000003c0: 0bfd 9f3f c86f 1740 86f0 4340 d8b3 16c0
000003d0: 1842 96bf 243b ab3f 93a7 b0bf ea16 4140
000003e0: b910 29c0 247b 79bf 2aa7 81c0 230f 86c0
000003f0: 2402 81c0 6e3e a1c0 547f 30c0 5f9b 0cc0

rel_embs.weight f4 [24, 5]
3.1856732 -2.8992033 3.076029 -4.304105 -2.1371753 3.4260097 0.44550726 3.9071329
-2.7886596 -0.84039384 -2.7319746 2.5875406 0.85569936 -0.605509 -0.2682296 -1.3941925
3.6863863 4.777813 0.35155684 -3.0043027 -0.42842892 -0.71669644 -3.218992 2.8282857
-0.47516543 -1.0464101 5.4461226 2.6769028 -5.8423214 3.964741 1.6032672 1.8168088
-0.43714568 -4.7344475 1.2169238 -3.9100947 -5.506049 -0.106308356 -1.1707771 3.9653685
-5.1253586 4.793624 3.0289993 -3.3734763 -2.1633592 -0.68742114 4.18278 4.5984807
-5.046903 0.20144469 3.1962996 -3.4203188 -0.55779135 -3.030763 -3.6521227 -2.043059
3.6272607 0.7572466 -1.8281313 1.3374629 -3.8385599 3.5105188 6.1896057 -0.8660654
-3.2195275 0.089105055 4.3714437 -4.9426637 3.2878144 -1.7509495 1.0504284 -1.7930446
2.6020422 -2.6586585 -0.6542966 -4.3777814 2.120146 0.52464217 -0.81884634 0.24450085
-4.076 1.6422671 -0.41081324 4.895376 -3.366494 0.6222359 0.7542256 -1.2097722
4.437647 -0.58544815 0.33462083 1.323122 4.102325 0.016321322 -3.1676118 0.5470646
0.30900508 1.5752608 4.8000565 -1.5768186 -0.0029169647 -0.89529204 3.5340178 -1.700671
-2.5288012 1.7434711 4.7508335 0.871437 2.4764652 -1.444134 1.5475894 -0.3017816
-1.2834704 -2.1630392 0.99236333 0.89960784 -3.0116014 0.85453945 -0.029133163 -3.0979152
00000000: 12e2 4b40 8c8c 39c0 a9dd 4440 3abb 89c0
00000010: 7bc7 08c0 be43 5b40 8719 e43e 770e 7a40
00000020: 6679 32c0 0d24 57bf acd8 2ec0 449a 2540
00000030: 1d0f 5b3f a302 1bbf 6455 89be e674 b2bf
00000040: c1ed 6b40 d8e3 9840 42ff b33e 7f46 40c0
00000050: 095b dbbe 6b79 37bf f703 4ec0 a202 3540
00000060: e248 f3be c4f0 85bf a346 ae40 6052 2b40
00000070: 4cf4 bac0 51be 7d40 dc37 cd3f 318d e83f
00000080: 8fd1 dfbe 9880 97c0 29c4 9b3f fe3e 7ac0
00000090: 8e31 b0c0 32b8 d9bd 06dc 95bf 99c8 7d40
000000a0: f002 a4c0 5e65 9940 20db 4140 09e7 57c0
000000b0: 7a74 0ac0 d5fa 2fbf 55d9 8540 c126 9340
000000c0: 3b80 a1c0 8447 4e3e 2c90 4c40 81e6 5ac0
000000d0: 6acb 0ebf 05f8 41c0 61bc 69c0 7bc1 02c0
000000e0: 0a25 6840 eada 413f 3500 eabf fc31 ab3f
000000f0: f7aa 75c0 57ac 6040 4011 c640 76b6 5dbf
00000100: bd0c 4ec0 b67c b63d dee2 8b40 4d2a 9ec0
00000110: 8d6b 5240 1d1f e0bf 7074 863f 7c82 e5bf
00000120: dc87 2640 7627 2ac0 fb7f 27bf c916 8cc0
00000130: 79b0 0740 f34e 063f ea9f 51bf 6e5e 7a3e
00000140: 986e 82c0 cf35 d23f 1d56 d2be eca6 9c40
00000150: a374 57c0 da4a 1f3f ee14 413f d1d9 9abf
00000160: 3401 8e40 eedf 15bf 6c53 ab3e 105c a93f
00000170: 3f46 8340 4bb4 853c 27ba 4ac0 6d0c 0c3f
00000180: ea35 9e3e 25a2 c93f 109a 9940 31d5 c9bf
00000190: 8c2a 3fbb dc31 65bf 592d 6240 96af d9bf
000001a0: e1d7 21c0 102a df3f d406 9840 7f16 5f3f
000001b0: 687e 1e40 62d9 b8bf 6917 c63f 1e83 9abe
000001c0: c248 a4bf 3c6f 0ac0 860b 7e3f b34c 663f
000001d0: 14be 40c0 19c3 5a3f aca8 eebc 3e44 46c0
